Model/amplitude-model-pruned-tensorflowlite.tflite (tflite, 370512 bytes, 28 tensors)

conv1/Conv2D_bias f4 [96]
000000 8c 3f 26 bc 15 3a c4 bd 0c 6f 2b b9 09 64 5c 3c
       -0.010146987 -0.09581391 -0.00016349199 0.013451585
000010 06 36 a3 3c b2 42 d9 bd c0 22 f4 3d 5b c3 24 be
       0.019923221 -0.10608424 0.119206905 -0.16090147
000020 4a 59 01 3e 7e 23 06 3e bc cd 30 3d d8 1e ac 3c
       0.12631717 0.13099477 0.043164954 0.021010801
000030 b6 f1 aa bb 2f b1 a9 3b 1d 9f cc 3c 20 42 b9 3d
       -0.0052168025 0.0051785926 0.024978215 0.090458155
000040 2a 41 39 3c ab 53 1b 3e 84 ac 20 3b 26 51 7b bd
       0.01130704 0.15168636 0.002451689 -0.061356686
000050 46 53 9c 3b 45 b8 3b 3d bb 31 c5 3c de b4 04 3e
       0.004770669 0.04583003 0.024071565 0.1295962
000060 6a 91 1b bc aa 36 af 3d 7b 11 a8 bd a8 5e 89 bd
       -0.009495119 0.08555348 -0.08206459 -0.06707507
000070 da 5d 0c 3e 5d ea 9d 3d 35 24 04 3c 16 3d f1 3c
       0.13707677 0.07710717 0.008065273 0.029448073
000080 be 01 42 3c 08 d0 be bc 1f e5 9f bd 1c da bf 3b
       0.011841236 -0.023292556 -0.07807373 0.005854858
000090 c8 95 01 be d3 67 13 be 7e 2f 29 be f2 23 b7 bb
       -0.12654793 -0.14395075 -0.16522023 -0.005589002
0000a0 23 6b d1 3c 3b 5d d5 bd b2 64 e4 3d 94 f8 be 3d
       0.025563782 -0.10418173 0.111520186 0.09324756
0000b0 fb 9f 49 be f2 17 14 be ff ce 5d 3d 6b 67 14 3e
       -0.19689934 -0.1446226 0.054152485 0.14492576
0000c0 0c ba 26 be 7f b9 41 be 2a fc 0b 3d cd b6 cd bd
       -0.16281909 -0.18918417 0.03417603 -0.10044632
0000d0 ee fd 1f be 08 1d 9f 3d 60 62 1a be cb 0b 7a bb
       -0.1562421 0.07769209 -0.1507659 -0.0038154002
0000e0 26 98 eb bd 63 71 aa 3d 16 32 35 3a 2a 25 2f 3c
       -0.115036294 0.08322408 0.00069120654 0.010690013
0000f0 0c 40 9d 3d 0e 89 a1 bd c0 6f 5c bd 60 ba f6 bd
       0.076782316 -0.07887469 -0.05381751 -0.12047267
000100 c2 c5 5d bd 91 cc 9e 3c 2c d5 3c bd 44 05 c1 bd
       -0.054143675 0.019384654 -0.046101734 -0.094248325
000110 16 d8 53 3c 39 c8 3b 3e f0 19 f8 bd fb d7 8b bc
       0.012929937 0.18338098 -0.12114322 -0.017070761
000120 14 8a 65 3b 58 de cd 3c df 4a 86 3d 28 09 8e bd
       0.0035024928 0.025130436 0.06557249 -0.0693534
000130 7f 73 49 bd 56 c1 ab 3d 7e f4 64 be 56 da 0d be
       -0.04918241 0.08386485 -0.22358891 -0.1385282
000140 d4 dd 87 3c 1e e3 2c be 30 14 5b 3d a8 aa 83 3d
       0.016585268 -0.16883513 0.05348605 0.064290345
000150 86 1c 40 3c 4d 3a 0f 3d e6 ad 5b 3d 82 b6 6e be
       0.0117255505 0.03496771 0.05363264 -0.23311809
000160 12 20 73 3d 42 de 80 3d 2c a9 f0 bc 1d 68 41 be
       0.059356757 0.06292392 -0.029377542 -0.18887372
000170 0f c6 91 b9 40 7b a1 3c bf f3 ea bd f1 90 93 3c
       -0.0002780412 0.01971209 -0.11472272 0.01801345

conv1/kernel i1 [1, 7, 7, 96] scale=0.0043825638 zero_point=0
000000 00 00 00 00 00 00 00 00 00 00 00 00 00 00 00 00
       0.0 0.0 0.0 0.0 0.0 0.0 0.0 0.0 0.0 0.0 0.0 0.0 0.0 0.0 0.0 0.0
000010 00 33 00 00 00 3a 00 00 00 c7 00 00 00 00 00 00
       0.0 0.22351076 0.0 0.0 0.0 0.2541887 0.0 0.0 0.0 -0.24980614 0.0 0.0 0.0 0.0 0.0 0.0
000020 00 00 00 00 00 00 00 00 00 00 53 00 00 00 00 00
       0.0 0.0 0.0 0.0 0.0 0.0 0.0 0.0 0.0 0.0 0.36375278 0.0 0.0 0.0 0.0 0.0
000030 00 00 00 00 00 00 00 00 00 bd 00 d3 db 00 00 00
       0.0 0.0 0.0 0.0 0.0 0.0 0.0 0.0 0.0 -0.29363176 0.0 -0.19721536 -0.16215485 0.0 0.0 0.0
000040 00 00 00 00 00 00 49 00 00 00 00 00 00 00 00 00
       0.0 0.0 0.0 0.0 0.0 0.0 0.31992716 0.0 0.0 0.0 0.0 0.0 0.0 0.0 0.0 0.0
000050 00 00 00 bf 00 2f 00 00 00 00 3d 00 00 2c 00 00
       0.0 0.0 0.0 -0.28486663 0.0 0.2059805 0.0 0.0 0.0 0.0 0.2673364 0.0 0.0 0.1928328 0.0 0.0
000060 00 00 00 00 00 00 00 00 00 27 00 00 00 00 48 00
       0.0 0.0 0.0 0.0 0.0 0.0 0.0 0.0 0.0 0.17091998 0.0 0.0 0.0 0.0 0.3155446 0.0
000070 36 30 00 3c 00 4e 00 00 00 bb 00 00 00 00 3d 00
       0.23665844 0.21036306 0.0 0.26295382 0.0 0.34183997 0.0 0.0 0.0 -0.3023969 0.0 0.0 0.0 0.0 0.2673364 0.0
000080 00 00 00 00 00 00 00 00 00 00 3b 00 00 00 00 d2
       0.0 0.0 0.0 0.0 0.0 0.0 0.0 0.0 0.0 0.0 0.25857127 0.0 0.0 0.0 0.0 -0.20159793
000090 00 00 00 00 00 00 00 00 00 bc c8 00 00 00 00 00
       0.0 0.0 0.0 0.0 0.0 0.0 0.0 0.0 0.0 -0.29801434 -0.24542357 0.0 0.0 0.0 0.0 0.0
0000a0 00 00 00 00 00 00 00 00 00 00 00 00 00 c7 00 00
       0.0 0.0 0.0 0.0 0.0 0.0 0.0 0.0 0.0 0.0 0.0 0.0 0.0 -0.24980614 0.0 0.0
0000b0 00 36 d4 b4 00 00 00 00 00 00 00 00 00 2a 00 00
       0.0 0.23665844 -0.1928328 -0.33307484 0.0 0.0 0.0 0.0 0.0 0.0 0.0 0.0 0.0 0.18406768 0.0 0.0
0000c0 00 00 00 00 00 00 00 00 00 00 00 00 00 33 46 2f
       0.0 0.0 0.0 0.0 0.0 0.0 0.0 0.0 0.0 0.0 0.0 0.0 0.0 0.22351076 0.30677947 0.2059805
0000d0 00 37 00 3a 00 45 00 00 00 d0 00 00 00 00 00 00
       0.0 0.241041 0.0 0.2541887 0.0 0.3023969 0.0 0.0 0.0 -0.21036306 0.0 0.0 0.0 0.0 0.0 0.0
0000e0 38 00 00 00 00 00 00 00 00 29 40 00 00 00 00 c5
       0.24542357 0.0 0.0 0.0 0.0 0.0 0.0 0.0 0.0 0.17968512 0.28048408 0.0 0.0 0.0 0.0 -0.25857127
0000f0 00 00 00 00 00 00 00 00 00 00 00 00 00 00 00 00
       0.0 0.0 0.0 0.0 0.0 0.0 0.0 0.0 0.0 0.0 0.0 0.0 0.0 0.0 0.0 0.0

conv10/Conv2D_bias f4 [6]
000000 96 4a 77 3e 55 96 04 3e 6a 75 9a bc 07 32 1a 3e
       0.24149546 0.12947972 -0.018854816 0.15058146
000010 48 b3 98 3e 06 e7 6a 3e
       0.2982428 0.22939691

conv10/kernel i1 [6, 1, 1, 512] scale=0.009477706 zero_point=0
000000 00 00 00 00 21 00 00 00 00 00 00 00 00 00 00 e0
       0.0 0.0 0.0 0.0 0.3127643 0.0 0.0 0.0 0.0 0.0 0.0 0.0 0.0 0.0 0.0 -0.30328658
000010 00 00 00 00 1f 00 00 00 00 00 00 23 00 00 00 00
       0.0 0.0 0.0 0.0 0.29380888 0.0 0.0 0.0 0.0 0.0 0.0 0.3317197 0.0 0.0 0.0 0.0
000020 dd 00 00 00 00 00 00 00 d5 00 00 00 26 00 00 00
       -0.3317197 0.0 0.0 0.0 0.0 0.0 0.0 0.0 -0.40754133 0.0 0.0 0.0 0.3601528 0.0 0.0 0.0
000030 00 d4 00 00 00 00 00 c7 00 00 00 00 00 00 d5 24
       0.0 -0.41701904 0.0 0.0 0.0 0.0 0.0 -0.5402292 0.0 0.0 0.0 0.0 0.0 0.0 -0.40754133 0.3411974
000040 00 00 00 00 00 00 00 00 00 00 00 00 00 00 00 00
       0.0 0.0 0.0 0.0 0.0 0.0 0.0 0.0 0.0 0.0 0.0 0.0 0.0 0.0 0.0 0.0
000050 00 00 00 00 00 de 00 00 00 e0 00 00 00 00 00 00
       0.0 0.0 0.0 0.0 0.0 -0.322242 0.0 0.0 0.0 -0.30328658 0.0 0.0 0.0 0.0 0.0 0.0
000060 00 00 00 00 00 00 00 00 00 00 26 00 00 00 dc 00
       0.0 0.0 0.0 0.0 0.0 0.0 0.0 0.0 0.0 0.0 0.3601528 0.0 0.0 0.0 -0.3411974 0.0
000070 24 00 00 00 00 00 00 00 00 00 00 00 00 00 df 00
       0.3411974 0.0 0.0 0.0 0.0 0.0 0.0 0.0 0.0 0.0 0.0 0.0 0.0 0.0 -0.3127643 0.0
000080 e0 00 00 00 00 00 00 00 00 00 00 00 00 00 00 00
       -0.30328658 0.0 0.0 0.0 0.0 0.0 0.0 0.0 0.0 0.0 0.0 0.0 0.0 0.0 0.0 0.0
000090 00 dd 00 00 00 00 cd 00 00 20 00 00 00 00 00 00
       0.0 -0.3317197 0.0 0.0 0.0 0.0 -0.483363 0.0 0.0 0.30328658 0.0 0.0 0.0 0.0 0.0 0.0
0000a0 00 00 00 00 00 00 00 00 00 00 00 00 00 23 d3 00
       0.0 0.0 0.0 0.0 0.0 0.0 0.0 0.0 0.0 0.0 0.0 0.0 0.0 0.3317197 -0.42649674 0.0
0000b0 00 00 00 00 00 00 00 00 00 00 00 dc 00 00 00 00
       0.0 0.0 0.0 0.0 0.0 0.0 0.0 0.0 0.0 0.0 0.0 -0.3411974 0.0 0.0 0.0 0.0
0000c0 00 00 00 00 22 00 00 00 29 00 00 00 00 00 00 00
       0.0 0.0 0.0 0.0 0.322242 0.0 0.0 0.0 0.38858593 0.0 0.0 0.0 0.0 0.0 0.0 0.0
0000d0 2b 00 00 00 00 00 00 00 00 00 23 00 00 00 00 00
       0.40754133 0.0 0.0 0.0 0.0 0.0 0.0 0.0 0.0 0.0 0.3317197 0.0 0.0 0.0 0.0 0.0
0000e0 00 00 00 00 00 00 00 d9 1f 00 00 00 00 00 00 00
       0.0 0.0 0.0 0.0 0.0 0.0 0.0 -0.36963052 0.29380888 0.0 0.0 0.0 0.0 0.0 0.0 0.0
0000f0 dd d8 00 00 00 00 cf 00 00 00 00 00 00 00 00 00
       -0.3317197 -0.37910822 0.0 0.0 0.0 0.0 -0.4644076 0.0 0.0 0.0 0.0 0.0 0.0 0.0 0.0 0.0

fire2_expand1/Conv2D_bias f4 [64]
000000 6e 5e 6d be 9c 22 a4 be 6f df 63 be f3 da f8 bd
       -0.23180553 -0.32057655 -0.22253202 -0.12151136
000010 9e 80 bc bc 70 86 8e be 2e dc 55 3d a9 9e 9d be
       -0.023010548 -0.27836943 0.052211933 -0.3078511
000020 4a 21 05 bf 67 46 c9 bd 0c 65 a4 bc 49 9d d1 bd
       -0.5200392 -0.09827881 -0.020067714 -0.10235078
000030 d0 a3 02 bf 22 6c 8b be 8a 99 ed 3d 4b f1 de bb
       -0.5103121 -0.27230936 0.11601551 -0.0068036667
000040 9b 10 52 bd 58 0d 85 bd b9 68 cb 3b b6 25 28 3e
       -0.051285367 -0.06496686 0.0062075523 0.16420636
000050 9e f5 08 be 88 eb 08 be ef b8 c6 be 41 79 f6 3c
       -0.13374946 -0.13371098 -0.38812968 0.030087115
000060 c0 84 6c be ff a7 4e bd b6 1c d6 bd 9c 2b 68 bd
       -0.23097515 -0.050453182 -0.10454695 -0.056682214
000070 34 f9 35 bc f7 40 17 bd 93 fb 59 be fe 65 02 3e
       -0.011106778 -0.03692719 -0.21287374 0.1273422
000080 64 50 e2 3d 8f d2 11 be 89 b2 5b be fd ba 14 3e
       0.110504895 -0.14240478 -0.21454825 0.14524455
000090 ff a4 61 be 46 d4 55 be 39 0d 50 bd 6c ba ca bd
       -0.22035597 -0.20881757 -0.05079386 -0.098988384
0000a0 14 66 ae bd a3 40 db bb af 8a 90 be 95 4a 64 3e
       -0.085155636 -0.006691055 -0.28230807 0.22294076
0000b0 90 18 6a 3e dc 42 09 3e 24 bd 7d bc 4b 84 b9 bd
       0.22860932 0.13404411 -0.015486989 -0.09058436
0000c0 4f 6f 04 be 47 b0 0f bd d1 53 d8 3c 9d ef 89 be
       -0.12933086 -0.03508022 0.026407154 -0.26940623
0000d0 60 11 20 bb dd c3 cb bd 52 d9 1f be be e1 ce 3d
       -0.0024424419 -0.09949467 -0.15610245 0.10101651
0000e0 68 7d 30 be b8 1a 59 be 10 0c 85 3d a1 3d bf 3d
       -0.17235339 -0.21201599 0.06496441 0.09337927
0000f0 73 57 ba 3b f0 5c 2f bd 3b 6f 32 be 00 24 c2 be
       0.0056866943 -0.04281324 -0.17425244 -0.3791809

fire2_expand1/kernel i1 [64, 1, 1, 16] scale=0.0082257595 zero_point=0
000000 00 00 00 00 00 00 00 00 00 2c 00 00 00 3a 00 00
       0.0 0.0 0.0 0.0 0.0 0.0 0.0 0.0 0.0 0.3619334 0.0 0.0 0.0 0.47709405 0.0 0.0
000010 00 00 00 cf 00 bf 00 00 00 00 00 00 33 00 00 00
       0.0 0.0 0.0 -0.40306222 0.0 -0.53467435 0.0 0.0 0.0 0.0 0.0 0.0 0.41951373 0.0 0.0 0.0
000020 00 00 d5 00 00 00 00 00 00 00 00 d5 00 00 00 00
       0.0 0.0 -0.35370767 0.0 0.0 0.0 0.0 0.0 0.0 0.0 0.0 -0.35370767 0.0 0.0 0.0 0.0
000030 00 00 00 00 00 00 00 00 cd 00 32 00 00 3e 00 00
       0.0 0.0 0.0 0.0 0.0 0.0 0.0 0.0 -0.41951373 0.0 0.41128796 0.0 0.0 0.50999707 0.0 0.0
000040 00 cf 00 00 00 00 00 00 00 00 00 00 00 00 00 00
       0.0 -0.40306222 0.0 0.0 0.0 0.0 0.0 0.0 0.0 0.0 0.0 0.0 0.0 0.0 0.0 0.0
000050 00 00 00 00 00 00 00 00 00 00 00 3b 00 00 00 d8
       0.0 0.0 0.0 0.0 0.0 0.0 0.0 0.0 0.0 0.0 0.0 0.48531982 0.0 0.0 0.0 -0.3290304
000060 d3 00 00 00 00 00 4a 2f bb 00 00 00 00 00 00 00
       -0.37015918 0.0 0.0 0.0 0.0 0.0 0.6087062 0.3866107 -0.5675774 0.0 0.0 0.0 0.0 0.0 0.0 0.0
000070 00 00 00 00 00 00 00 00 00 00 00 c2 00 00 00 00
       0.0 0.0 0.0 0.0 0.0 0.0 0.0 0.0 0.0 0.0 0.0 -0.50999707 0.0 0.0 0.0 0.0
000080 00 00 00 00 00 99 00 00 00 d0 00 38 2e 00 00 00
       0.0 0.0 0.0 0.0 0.0 -0.8472532 0.0 0.0 0.0 -0.39483646 0.0 0.46064252 0.37838495 0.0 0.0 0.0
000090 00 00 00 00 00 00 52 47 00 00 00 00 00 00 00 46
       0.0 0.0 0.0 0.0 0.0 0.0 0.67451227 0.5840289 0.0 0.0 0.0 0.0 0.0 0.0 0.0 0.57580316
0000a0 00 35 00 2a ca 00 00 00 00 00 00 00 00 00 00 00
       0.0 0.43596524 0.0 0.3454819 -0.444191 0.0 0.0 0.0 0.0 0.0 0.0 0.0 0.0 0.0 0.0 0.0
0000b0 00 2d 00 00 00 00 00 c5 00 00 36 cc 00 00 00 ce
       0.0 0.37015918 0.0 0.0 0.0 0.0 0.0 -0.48531982 0.0 0.0 0.444191 -0.4277395 0.0 0.0 0.0 -0.41128796
0000c0 00 00 00 00 00 00 00 00 00 00 00 00 32 00 00 00
       0.0 0.0 0.0 0.0 0.0 0.0 0.0 0.0 0.0 0.0 0.0 0.0 0.41128796 0.0 0.0 0.0
0000d0 00 00 00 00 41 00 00 2a 00 2e 00 00 00 00 c1 00
       0.0 0.0 0.0 0.0 0.53467435 0.0 0.0 0.3454819 0.0 0.37838495 0.0 0.0 0.0 0.0 -0.51822287 0.0
0000e0 2e 00 00 00 36 c8 00 00 00 00 cb 00 00 00 00 00
       0.37838495 0.0 0.0 0.0 0.444191 -0.46064252 0.0 0.0 0.0 0.0 -0.43596524 0.0 0.0 0.0 0.0 0.0
0000f0 d1 d4 00 46 00 00 32 00 00 00 00 00 00 00 00 00
       -0.3866107 -0.3619334 0.0 0.57580316 0.0 0.0 0.41128796 0.0 0.0 0.0 0.0 0.0 0.0 0.0 0.0 0.0

fire2_expand2/Conv2D_bias f4 [64]
000000 7d 08 c9 be f0 d5 32 bd 86 a3 4b 3e 3e a3 58 3e
       -0.3926429 -0.043661058 0.19886598 0.21156022
000010 71 f7 6f 3e a1 29 4e 3e 95 4c 79 3e a2 36 53 bd
       0.23434235 0.20133068 0.2434562 -0.051565774
000020 9b 8d 03 3e e2 e9 77 be d0 4b 9a bc f4 26 06 be
       0.12846987 -0.24210313 -0.018834978 -0.13100797
000030 33 46 40 3e 49 04 49 3e ba a7 69 3d 82 ab ca 3d
       0.18776779 0.19630541 0.057044722 0.09895994
000040 d5 21 99 3e 1e 2f 96 3d d6 17 15 be fd 9a 5e be
       0.29908624 0.07333206 -0.14559874 -0.21738811
000050 41 7f c2 3d 2b aa 92 3e 92 1c 1d 3e 96 c1 6b 3d
       0.09496928 0.28645453 0.1534293 0.057557665
000060 38 71 1a 3e 63 57 89 3e 45 6f 84 3e 5c 36 7c be
       0.15082252 0.26824483 0.25866142 -0.24630111
000070 27 1e e1 3c 1e 11 c1 3c 7e fa 76 be b0 a1 72 bd
       0.027480198 0.023567732 -0.24118993 -0.05923623
000080 31 76 af 3e 05 52 26 bc fd 2f 9f 3d d5 c8 13 bd
       0.3426986 -0.010151391 0.07772825 -0.0360802
000090 de ff a0 3d 2e ff ad bc 30 d2 8d bd d1 92 3b 3d
       0.07861303 -0.021239843 -0.06924856 0.045794312
0000a0 f5 59 ad 3e ca 22 de 3d ea d4 67 3e c9 0e 0f 3e
       0.33857694 0.10846479 0.22639814 0.13970484
0000b0 45 c5 41 bd 29 15 29 3e 85 e3 1d 3c 86 67 07 bf
       -0.04730727 0.16511978 0.009636764 -0.5289234
0000c0 3b 5a 24 be a8 87 24 3e 7c 27 39 be 79 0e cc 3e
       -0.16050045 0.16067374 -0.18081468 0.39854792
0000d0 9a 0d b4 3e 1d cf 79 3e 2e 75 13 be 72 0e 80 3e
       0.35166627 0.24395414 -0.14400169 0.2501102
0000e0 c7 37 b0 3d cb a9 96 bc 94 e6 2c 3e b2 2f 9d 3e
       0.08604389 -0.01839151 0.16884834 0.3070045
0000f0 c1 2c 2e 3e a2 45 1b be 7b e2 dd 3c a8 ef 69 3e
       0.1700926 -0.15163282 0.027085533 0.22845328

fire2_expand2/kernel i1 [64, 3, 3, 16] scale=0.007676401 zero_point=0
000000 00 00 00 00 00 00 4a 00 00 00 00 00 d7 00 00 00
       0.0 0.0 0.0 0.0 0.0 0.0 0.56805366 0.0 0.0 0.0 0.0 0.0 -0.31473246 0.0 0.0 0.0
000010 00 00 00 00 e2 00 00 00 00 00 00 00 00 00 00 00
       0.0 0.0 0.0 0.0 -0.23029204 0.0 0.0 0.0 0.0 0.0 0.0 0.0 0.0 0.0 0.0 0.0
000020 00 00 00 00 e1 00 00 00 00 00 00 00 00 db df d3
       0.0 0.0 0.0 0.0 -0.23796843 0.0 0.0 0.0 0.0 0.0 0.0 0.0 0.0 -0.28402683 -0.25332123 -0.34543806
000030 00 00 00 00 00 00 20 00 00 00 00 00 d2 00 00 00
       0.0 0.0 0.0 0.0 0.0 0.0 0.24564484 0.0 0.0 0.0 0.0 0.0 -0.35311446 0.0 0.0 0.0
000040 dd 00 00 38 00 00 00 00 df 00 00 00 c9 00 00 00
       -0.26867405 0.0 0.0 0.42987847 0.0 0.0 0.0 0.0 -0.25332123 0.0 0.0 0.0 -0.42220205 0.0 0.0 0.0
000050 00 00 00 40 00 00 00 00 00 00 00 00 c9 00 00 00
       0.0 0.0 0.0 0.49128968 0.0 0.0 0.0 0.0 0.0 0.0 0.0 0.0 -0.42220205 0.0 0.0 0.0
000060 00 1f c6 c7 00 00 00 00 00 00 00 00 00 00 00 00
       0.0 0.23796843 -0.44523126 -0.43755487 0.0 0.0 0.0 0.0 0.0 0.0 0.0 0.0 0.0 0.0 0.0 0.0
000070 00 21 00 dc 22 00 00 00 00 00 00 00 00 00 2c 00
       0.0 0.25332123 0.0 -0.27635044 0.26099765 0.0 0.0 0.0 0.0 0.0 0.0 0.0 0.0 0.0 0.33776164 0.0
000080 00 24 d8 da 22 00 00 00 00 00 00 00 00 00 00 00
       0.0 0.27635044 -0.30705604 -0.29170325 0.26099765 0.0 0.0 0.0 0.0 0.0 0.0 0.0 0.0 0.0 0.0 0.0
000090 00 00 00 00 00 00 dd 00 00 00 00 dc db 00 00 00
       0.0 0.0 0.0 0.0 0.0 0.0 -0.26867405 0.0 0.0 0.0 0.0 -0.27635044 -0.28402683 0.0 0.0 0.0
0000a0 00 00 00 00 00 00 00 00 00 00 00 00 00 00 00 00
       0.0 0.0 0.0 0.0 0.0 0.0 0.0 0.0 0.0 0.0 0.0 0.0 0.0 0.0 0.0 0.0
0000b0 00 00 00 cc 00 d9 00 00 00 00 00 00 2b 00 00 00
       0.0 0.0 0.0 -0.39917287 0.0 -0.29937965 0.0 0.0 0.0 0.0 0.0 0.0 0.33008525 0.0 0.0 0.0
0000c0 e1 00 00 41 bc 00 00 00 00 29 00 00 00 00 00 00
       -0.23796843 0.0 0.0 0.49896607 -0.5219953 0.0 0.0 0.0 0.0 0.31473246 0.0 0.0 0.0 0.0 0.0 0.0
0000d0 00 00 00 00 cd 00 00 00 00 00 00 00 00 00 00 00
       0.0 0.0 0.0 0.0 -0.39149645 0.0 0.0 0.0 0.0 0.0 0.0 0.0 0.0 0.0 0.0 0.0
0000e0 00 00 00 00 00 00 00 00 00 00 00 00 cb 00 00 2f
       0.0 0.0 0.0 0.0 0.0 0.0 0.0 0.0 0.0 0.0 0.0 0.0 -0.40684927 0.0 0.0 0.36079085
0000f0 00 2d 00 2e 00 d6 00 cc 00 00 00 00 00 00 d4 00
       0.0 0.34543806 0.0 0.35311446 0.0 -0.32240885 0.0 -0.39917287 0.0 0.0 0.0 0.0 0.0 0.0 -0.33776164 0.0

fire2_squeeze/Conv2D_bias f4 [16]
000000 1e 8b 89 bd d2 6f 02 be ed dd a1 bc eb 69 60 bc
       -0.067159876 -0.12737969 -0.019759143 -0.013697128
000010 1d 28 d6 bd 8a 70 d1 bd a6 87 ba bd d7 bc 92 3e
       -0.1045687 -0.10226543 -0.09107904 0.28659698
000020 73 a8 50 be 98 c5 0f bd 81 31 07 be a5 ca d7 bc
       -0.20376758 -0.03510055 -0.13202478 -0.026341746
000030 1b ec 8b 3d 0b c8 1c 3c 56 f6 51 3d 95 ed 0c 3c
       0.06832143 0.009569178 0.051260315 0.008601566

fire2_squeeze/kernel i1 [16, 1, 1, 96] scale=0.007443343 zero_point=0
000000 00 00 00 57 3c 00 00 00 00 00 00 00 00 00 00 00
       0.0 0.0 0.0 0.64757085 0.44660056 0.0 0.0 0.0 0.0 0.0 0.0 0.0 0.0 0.0 0.0 0.0
000010 00 00 39 cc 00 00 00 00 33 00 00 00 00 00 00 00
       0.0 0.0 0.42427054 -0.38705382 0.0 0.0 0.0 0.0 0.37961048 0.0 0.0 0.0 0.0 0.0 0.0 0.0
000020 00 00 47 00 00 00 d7 00 00 00 00 00 00 00 00 00
       0.0 0.0 0.5284773 0.0 0.0 0.0 -0.30517706 0.0 0.0 0.0 0.0 0.0 0.0 0.0 0.0 0.0
000030 00 db 00 00 00 00 00 2b 00 00 29 00 00 00 00 00
       0.0 -0.27540368 0.0 0.0 0.0 0.0 0.0 0.32006374 0.0 0.0 0.30517706 0.0 0.0 0.0 0.0 0.0
000040 00 65 00 00 31 00 32 00 6c 00 00 00 00 00 00 00
       0.0 0.75177765 0.0 0.0 0.3647238 0.0 0.37216714 0.0 0.80388105 0.0 0.0 0.0 0.0 0.0 0.0 0.0
000050 00 00 00 00 29 00 25 00 00 00 00 3b 00 00 2c 00
       0.0 0.0 0.0 0.0 0.30517706 0.0 0.27540368 0.0 0.0 0.0 0.0 0.43915722 0.0 0.0 0.32750708 0.0
000060 36 00 00 00 00 00 00 00 00 00 00 33 2e 00 00 24
       0.40194052 0.0 0.0 0.0 0.0 0.0 0.0 0.0 0.0 0.0 0.0 0.37961048 0.34239376 0.0 0.0 0.26796034
000070 00 00 00 00 00 00 00 00 00 00 00 00 00 00 00 29
       0.0 0.0 0.0 0.0 0.0 0.0 0.0 0.0 0.0 0.0 0.0 0.0 0.0 0.0 0.0 0.30517706
000080 00 42 00 00 00 5a 3e 00 00 00 00 00 00 00 00 00
       0.0 0.49126062 0.0 0.0 0.0 0.66990083 0.46148726 0.0 0.0 0.0 0.0 0.0 0.0 0.0 0.0 0.0
000090 44 56 00 4e 00 00 00 37 00 00 00 00 00 00 32 00
       0.5061473 0.6401275 0.0 0.5805807 0.0 0.0 0.0 0.40938386 0.0 0.0 0.0 0.0 0.0 0.0 0.37216714 0.0
0000a0 00 00 00 00 2a 00 00 00 00 00 00 d9 00 3d 00 00
       0.0 0.0 0.0 0.0 0.3126204 0.0 0.0 0.0 0.0 0.0 0.0 -0.29029036 0.0 0.45404392 0.0 0.0
0000b0 d2 00 00 00 00 00 00 3a 00 29 00 00 00 00 00 00
       -0.34239376 0.0 0.0 0.0 0.0 0.0 0.0 0.43171388 0.0 0.30517706 0.0 0.0 0.0 0.0 0.0 0.0
0000c0 00 00 00 4d 00 00 00 00 00 00 00 00 00 00 00 00
       0.0 0.0 0.0 0.5731374 0.0 0.0 0.0 0.0 0.0 0.0 0.0 0.0 0.0 0.0 0.0 0.0
0000d0 00 00 2c 00 00 00 00 00 39 00 d7 00 00 00 00 00
       0.0 0.0 0.32750708 0.0 0.0 0.0 0.0 0.0 0.42427054 0.0 -0.30517706 0.0 0.0 0.0 0.0 0.0
0000e0 00 00 27 39 00 00 d7 00 00 00 00 00 00 00 00 00
       0.0 0.0 0.29029036 0.42427054 0.0 0.0 -0.30517706 0.0 0.0 0.0 0.0 0.0 0.0 0.0 0.0 0.0
0000f0 00 00 00 4c 00 30 00 2f 34 00 00 00 00 30 00 00
       0.0 0.0 0.0 0.56569403 0.0 0.35728046 0.0 0.34983712 0.38705382 0.0 0.0 0.0 0.0 0.35728046 0.0 0.0

fire4_expand1/Conv2D_bias f4 [128]
000000 ab 1d 05 bf 2b d2 0f bf 27 fb a5 be 52 c5 f7 bd
       -0.51998395 -0.56180066 -0.32418177 -0.12098183
000010 20 17 2b bf b1 3f 58 bc 16 6d 46 bc 70 fe 3a be
       -0.6683216 -0.013198779 -0.012110969 -0.18261123
000020 28 c9 00 be 7c c3 08 be 16 0b 2c bf 7d 0a f2 be
       -0.12576735 -0.13355821 -0.67204416 -0.47273627
000030 e9 07 6e be 26 29 37 3e 36 01 14 bf 3e 39 9e 3c
       -0.23245205 0.1788679 -0.5781435 0.019314405
000040 75 44 05 be 57 24 bf bd 6c 24 3f bf 69 e7 e0 be
       -0.13014396 -0.09333103 -0.7466495 -0.43926552
000050 96 a5 a6 bc 0f 22 1e bf 15 80 44 be 2e 61 0a 3e
       -0.02034263 -0.6177072 -0.19189484 0.13513634
000060 54 2b 1b be a2 ce d3 bd fb 5c 21 bf b2 58 3d bf
       -0.15153247 -0.103421465 -0.630325 -0.73963463
000070 c9 78 b9 be e0 d0 2e bf 18 2a 32 bf 9d e8 06 bf
       -0.36224964 -0.6828747 -0.6959548 -0.5269869
000080 0a 81 1b bf 61 51 d1 bd 54 7d 1e bd 85 f7 22 bd
       -0.60743773 -0.102206 -0.03869374 -0.039786834
000090 4c 47 e6 be 64 e0 24 bf 8e 4e 0f bf fc 31 1f bb
       -0.4497627 -0.6440489 -0.5597924 -0.0024291268
0000a0 67 b9 c9 be 71 8e 09 bf 81 95 1f bf 02 17 30 bf
       -0.39399263 -0.53732973 -0.623375 -0.6878511
0000b0 cd 2a c6 bd 85 4a 1c bf 4b d7 ca be f8 fa f0 be
       -0.09676132 -0.6105121 -0.3961738 -0.47066474
0000c0 2e fc 30 be 11 8f 61 bc 79 35 ce be bd 46 4f be
       -0.17283699 -0.01376702 -0.4027517 -0.20241828
0000d0 40 1b 53 3e f9 55 ac bb 00 dc 0f bf 59 d1 ae bc
       0.20615864 -0.005259272 -0.5619507 -0.02134006
0000e0 5d f8 18 bf f7 b1 d7 bb 56 58 28 3d b9 90 0f bf
       -0.5975397 -0.0065824944 0.04109987 -0.56080204
0000f0 02 31 8e bc 35 02 bc be 67 30 84 be 96 71 b6 be
       -0.017357353 -0.36720434 -0.25818178 -0.35633534
000100 52 33 60 bf 50 cb 25 bf b7 2d 1f bf 0b 47 25 3d
       -0.8757831 -0.64763355 -0.6217913 0.040350955
000110 7d e7 21 bf 9b 43 c3 3c 1a 3a 45 bf 84 00 3d be
       -0.6324385 0.023835948 -0.7704178 -0.18457228
000120 94 81 2f 3e 7d 0c 87 be 6b 12 6b be 66 18 82 bc
       0.17139274 -0.26376715 -0.22956245 -0.015880775
000130 c7 ba 07 bf 4d c9 bc bb 81 47 3f 3d d9 1c dd 3d
       -0.53019375 -0.0057613016 0.04669905 0.10796518
000140 d8 98 3d be 3b 06 f1 bd 8f f0 12 bf 7b 26 d6 be
       -0.18515337 -0.117687665 -0.57398313 -0.41826233
000150 87 29 55 bc 42 bc 93 be ba 84 e3 3a 85 c3 32 be
       -0.013010389 -0.28854567 0.0017358281 -0.17457397
000160 cb ff e7 be f0 54 37 bd 26 ec b2 bd dc b0 ae be
       -0.45312342 -0.044758737 -0.08736448 -0.34119308
000170 34 0e 98 bc 52 b2 2c bf 8f d1 b7 be 05 74 90 be
       -0.01856146 -0.67459595 -0.35902068 -0.28213516
000180 5f 33 bb be 6c 74 26 bf a7 dc 46 be df c0 73 bf
       -0.3656263 -0.65021396 -0.1942011 -0.9521617
000190 e6 8a 8f 3e aa 6d fe be 61 b7 1f bf 24 8f 48 3d
       0.2803566 -0.49693042 -0.6238919 0.048964635
0001a0 ea 65 96 be c1 d4 fa be 72 db e0 be f6 f8 a7 bd
       -0.2937463 -0.48990443 -0.43917423 -0.082017824
0001b0 75 45 64 3e 09 d5 a4 be ce e1 d8 bd 7d dc 66 be
       0.22292121 -0.32193783 -0.10589944 -0.22545047
0001c0 ca f3 16 bf 90 61 a1 bd fc 0a 89 be e6 fd 8c be
       -0.5896574 -0.07879937 -0.26766193 -0.2753746
0001d0 3a c1 aa be 3e 9d 9b 3e dd 76 51 bd f4 50 cc be
       -0.33350545 0.30393404 -0.051138747 -0.39905512
0001e0 ca 3e c0 be 94 1d d0 3c 69 43 74 be ca 1c f2 3d
       -0.37547904 0.025404729 -0.2385384 0.11821897
0001f0 00 0b ac be 98 3a c0 be f2 d4 fa 3c 3f 81 33 bd
       -0.33602142 -0.37544703 0.030619118 -0.04382443

fire4_expand1/kernel i1 [128, 1, 1, 32] scale=0.006512126 zero_point=0
000000 00 00 00 cd 00 00 00 00 d4 00 cf 00 00 00 00 00
       0.0 0.0 0.0 -0.33211842 0.0 0.0 0.0 0.0 -0.28653353 0.0 -0.31909418 0.0 0.0 0.0 0.0 0.0
000010 00 00 00 3b 00 bb d1 00 00 00 00 00 00 00 00 00
       0.0 0.0 0.0 0.38421544 0.0 -0.44933668 -0.3060699 0.0 0.0 0.0 0.0 0.0 0.0 0.0 0.0 0.0
000020 00 00 00 00 00 00 00 cc 00 00 c4 29 00 00 cb 2a
       0.0 0.0 0.0 0.0 0.0 0.0 0.0 -0.33863056 0.0 0.0 -0.39072755 0.26699716 0.0 0.0 -0.34514266 0.2735093
000030 36 00 00 00 00 d9 00 00 00 00 00 00 00 00 dc 00
       0.3516548 0.0 0.0 0.0 0.0 -0.25397292 0.0 0.0 0.0 0.0 0.0 0.0 0.0 0.0 -0.23443654 0.0
000040 00 00 c2 00 00 00 00 00 00 c8 00 00 00 00 d7 00
       0.0 0.0 -0.40375182 0.0 0.0 0.0 0.0 0.0 0.0 -0.36467904 0.0 0.0 0.0 0.0 -0.26699716 0.0
000050 00 c2 d1 a6 00 00 00 00 00 d7 00 00 00 cf 00 d3
       0.0 -0.40375182 -0.3060699 -0.58609134 0.0 0.0 0.0 0.0 0.0 -0.26699716 0.0 0.0 0.0 -0.31909418 0.0 -0.29304567
000060 00 00 b2 d8 00 ca 00 00 00 00 00 00 00 00 c2 db
       0.0 0.0 -0.50794584 -0.26048505 0.0 -0.3516548 0.0 0.0 0.0 0.0 0.0 0.0 0.0 0.0 -0.40375182 -0.24094866
000070 00 af bc 00 d6 c7 00 00 c5 00 00 00 00 d5 00 00
       0.0 -0.5274822 -0.44282457 0.0 -0.2735093 -0.37119117 0.0 0.0 -0.38421544 0.0 0.0 0.0 0.0 -0.28002143 0.0 0.0
000080 00 00 00 00 00 00 00 00 00 00 00 00 00 00 00 00
       0.0 0.0 0.0 0.0 0.0 0.0 0.0 0.0 0.0 0.0 0.0 0.0 0.0 0.0 0.0 0.0
000090 00 00 00 00 00 00 00 00 31 00 00 00 00 00 a3 00
       0.0 0.0 0.0 0.0 0.0 0.0 0.0 0.0 0.31909418 0.0 0.0 0.0 0.0 0.0 -0.6056277 0.0
0000a0 00 00 00 00 00 00 00 00 00 00 00 44 9b 00 00 a0
       0.0 0.0 0.0 0.0 0.0 0.0 0.0 0.0 0.0 0.0 0.0 0.44282457 -0.65772474 0.0 0.0 -0.6251641
0000b0 00 be 00 00 00 00 00 00 00 00 c3 00 b4 00 00 00
       0.0 -0.4298003 0.0 0.0 0.0 0.0 0.0 0.0 0.0 0.0 -0.39723969 0.0 -0.49492157 0.0 0.0 0.0
0000c0 00 00 c9 00 00 be 00 00 00 00 d6 00 00 d2 00 cd
       0.0 0.0 -0.35816693 0.0 0.0 -0.4298003 0.0 0.0 0.0 0.0 -0.2735093 0.0 0.0 -0.2995578 0.0 -0.33211842
0000d0 b1 cf 00 00 00 00 00 00 00 00 00 00 d7 00 00 00
       -0.51445794 -0.31909418 0.0 0.0 0.0 0.0 0.0 0.0 0.0 0.0 0.0 0.0 -0.26699716 0.0 0.0 0.0
0000e0 00 00 00 00 d3 00 00 00 00 28 00 00 00 00 35 00
       0.0 0.0 0.0 0.0 -0.29304567 0.0 0.0 0.0 0.0 0.26048505 0.0 0.0 0.0 0.0 0.34514266 0.0
0000f0 d0 c1 00 00 00 00 2d 32 00 00 36 ca 00 00 00 b5
       -0.31258205 -0.41026393 0.0 0.0 0.0 0.0 0.29304567 0.3256063 0.0 0.0 0.3516548 -0.3516548 0.0 0.0 0.0 -0.48840946

fire4_expand2/Conv2D_bias f4 [128]
000000 10 89 f5 3d 2a 53 db be 1b 73 9c bd a1 cb 7e bd
       0.11989033 -0.42836887 -0.07639142 -0.062205914
000010 0e 3b c2 3c e0 48 cc bd 3f b7 36 be 08 41 c3 3d
       0.0237098 -0.09974837 -0.1784334 0.09533888
000020 53 c4 65 bb 55 10 7b 3d 82 f3 60 bb fd 0a 6d bd
       -0.0035059645 0.061294872 -0.003432483 -0.057871807
000030 4c 48 87 3d bc e5 98 3d a6 3e e3 bd c5 95 cf 3d
       0.066055864 0.07465693 -0.110959336 0.10135988
000040 2a 3b df 3d ec 07 51 be 35 b8 66 bd 5e b0 37 3d
       0.108999565 -0.20413178 -0.056328017 0.04484593
000050 39 e2 16 3e 03 b7 e7 bd 36 ec 08 3e 85 aa 24 3e
       0.14734735 -0.113142036 0.13371357 0.16080673
000060 13 75 99 be 8e e0 b6 3e 0c bf b8 3d 82 3e 1c 3e
       -0.29972133 0.35718197 0.09020814 0.1525822
000070 c0 ac 39 be eb 94 a5 be 68 53 ba bd be ee 27 3e
       -0.18132305 -0.32340178 -0.0909794 0.16399667
000080 8c de 2f bd 42 84 c3 bd ad 42 f5 3d 00 41 e7 bc
       -0.042936847 -0.095467106 0.11975608 -0.028229237
000090 6d 82 75 3e 1c 98 4d 3d 1d d9 b6 3e 22 8c d1 bd
       0.23975535 0.05019389 0.3571252 -0.10231806
0000a0 31 2c 13 bc 2b 90 d5 3e 0b c5 a1 bd 6e fc 96 3d
       -0.008982704 0.41711554 -0.07898911 0.07372366
0000b0 64 9b 21 be 4a ec 44 3d c4 fa f4 3d 6b e2 d8 3c
       -0.15781933 0.048076905 0.11961892 0.026475152
0000c0 8a c9 00 bc 14 89 0f 3e 96 ca 34 3c a3 4f c5 be
       -0.007860551 0.14017135 0.011034628 -0.3853732
0000d0 50 58 46 be 32 49 25 3e 0e 62 cd 3c 1f b7 b1 3e
       -0.19369626 0.16141203 0.02507117 0.34710023
0000e0 b0 6c 27 3c d4 1a 3f bd 63 66 8d 3e 42 73 8c 3e
       0.010218784 -0.046656445 0.27617177 0.27431685
0000f0 b9 c8 89 3e 90 0c 84 bc 85 18 21 bd 13 d3 59 3c
       0.26910952 -0.016119272 -0.039330024 0.013294953
000100 b4 16 9b bd 63 d7 3a 3e 7e d0 12 bd 27 d9 f4 3d
       -0.0757269 0.18246226 -0.035843365 0.11955481
000110 d7 7d a6 bc 28 a6 f3 bd f3 2f 04 3e 20 a8 23 be
       -0.020323677 -0.11896926 0.12908916 -0.15982103
000120 ba 91 db 3c e3 f5 76 3d 25 04 13 3e fc 2b 86 3c
       0.026802886 0.06029309 0.1435705 0.016378395
000130 4f d0 91 bd 95 5b fe bb 40 f9 b1 3d 22 e6 24 bd
       -0.0711981 -0.0077623823 0.08690119 -0.040258534
000140 2b dc 91 3d 13 28 16 3e e3 fc ba 3e 3f 59 c0 3d
       0.07122072 0.14663725 0.36521062 0.09392022
000150 71 f6 0e 3e 6e b4 30 bd 52 fc 0b 3e f1 57 68 3c
       0.13961197 -0.04314082 0.13670471 0.014181123
000160 d4 06 3e 3e fc ee 73 bd db cd 10 3e 60 43 96 3d
       0.18557292 -0.059554085 0.14141028 0.073370695
000170 46 5d 21 3d 1e f8 ca 3d f7 6c f7 3c eb 70 36 3e
       0.039395593 0.09910606 0.030203326 0.17816512
000180 df 53 5a 3e ee 66 7d bd 74 99 de bd 31 60 3c 3e
       0.21321057 -0.06186574 -0.108691126 0.18396069
000190 c5 d4 13 3e 55 71 39 be 15 57 95 be 0c 74 40 bb
       0.14436634 -0.18109639 -0.29168 -0.0029366044
0001a0 f3 76 d3 3d 86 32 9c bd df 6c db be 65 a4 0a 3d
       0.10325422 -0.07626824 -0.428565 0.033848185
0001b0 d5 91 42 3d ad 2e 0f be 45 2f 1f be aa 75 24 3e
       0.047502358 -0.13982649 -0.15545376 0.1606051
0001c0 7a 73 f6 3d ac 18 37 3d 40 46 23 3e 40 85 78 3e
       0.12033744 0.044701263 0.15944767 0.24269581
0001d0 88 1d 70 bd ed ef 7c be 6d 2d 12 be 80 3e 03 bf
       -0.058621913 -0.247009 -0.14275141 -0.5126724
0001e0 bb 5e b6 bc d0 61 e6 3c d8 90 83 3d c9 ec d3 3c
       -0.022261968 0.028122813 0.06424111 0.025869744
0001f0 8b 30 25 bd 95 23 07 3d e0 1b a9 3d 3b 9d e3 bd
       -0.040329497 0.032992918 0.0825727 -0.11113974

fire4_expand2/kernel i1 [128, 3, 3, 32] scale=0.00954509 zero_point=0
000000 e4 00 e3 00 00 de 00 e2 00 00 00 1d 00 00 00 00
       -0.26726252 0.0 -0.2768076 0.0 0.0 -0.32453305 0.0 -0.2863527 0.0 0.0 0.0 0.2768076 0.0 0.0 0.0 0.0
000010 00 00 d6 00 da 00 00 2d 00 d5 00 00 00 d4 26 e2
       0.0 0.0 -0.40089378 0.0 -0.3627134 0.0 0.0 0.42952904 0.0 -0.41043887 0.0 0.0 0.0 -0.41998395 0.3627134 -0.2863527
000020 de 00 00 00 00 d6 00 e4 00 00 00 00 00 00 00 00
       -0.32453305 0.0 0.0 0.0 0.0 -0.40089378 0.0 -0.26726252 0.0 0.0 0.0 0.0 0.0 0.0 0.0 0.0
000030 00 00 00 00 c4 de 00 00 d7 d1 00 00 00 d3 00 00
       0.0 0.0 0.0 0.0 -0.5727054 -0.32453305 0.0 0.0 -0.3913487 -0.44861922 0.0 0.0 0.0 -0.42952904 0.0 0.0
000040 00 00 dc 00 00 00 00 00 00 eb 00 00 00 00 ca 00
       0.0 0.0 -0.34362322 0.0 0.0 0.0 0.0 0.0 0.0 -0.20044689 0.0 0.0 0.0 0.0 -0.51543486 0.0
000050 00 00 00 00 b5 df 00 00 d5 e0 00 00 00 00 00 00
       0.0 0.0 0.0 0.0 -0.7158817 -0.31498796 0.0 0.0 -0.41043887 -0.30544287 0.0 0.0 0.0 0.0 0.0 0.0
000060 00 00 00 1e 00 00 00 00 00 00 21 00 00 00 00 00
       0.0 0.0 0.0 0.2863527 0.0 0.0 0.0 0.0 0.0 0.0 0.31498796 0.0 0.0 0.0 0.0 0.0
000070 00 00 be 00 00 00 00 00 00 00 00 00 00 00 20 19
       0.0 0.0 -0.6299759 0.0 0.0 0.0 0.0 0.0 0.0 0.0 0.0 0.0 0.0 0.0 0.30544287 0.23862724
000080 00 00 00 00 00 00 00 00 00 00 00 00 e4 00 1a 00
       0.0 0.0 0.0 0.0 0.0 0.0 0.0 0.0 0.0 0.0 0.0 0.0 -0.26726252 0.0 0.24817233 0.0
000090 00 00 00 00 00 00 00 00 20 00 00 00 00 00 21 00
       0.0 0.0 0.0 0.0 0.0 0.0 0.0 0.0 0.30544287 0.0 0.0 0.0 0.0 0.0 0.31498796 0.0
0000a0 17 00 00 00 00 e0 00 00 00 00 00 00 00 00 00 00
       0.21953706 0.0 0.0 0.0 0.0 -0.30544287 0.0 0.0 0.0 0.0 0.0 0.0 0.0 0.0 0.0 0.0
0000b0 1f 00 00 00 00 00 00 23 2a 2e 00 00 00 00 16 00
       0.29589778 0.0 0.0 0.0 0.0 0.0 0.0 0.33407813 0.40089378 0.43907413 0.0 0.0 0.0 0.0 0.20999198 0.0
0000c0 00 00 00 00 ed e9 c0 00 00 00 00 00 00 00 e0 00
       0.0 0.0 0.0 0.0 -0.1813567 -0.21953706 -0.61088574 0.0 0.0 0.0 0.0 0.0 0.0 0.0 -0.30544287 0.0
0000d0 00 00 e0 00 00 00 e3 e2 e9 f1 00 00 00 00 00 00
       0.0 0.0 -0.30544287 0.0 0.0 0.0 -0.2768076 -0.2863527 -0.21953706 -0.14317635 0.0 0.0 0.0 0.0 0.0 0.0
0000e0 dd 00 c9 e4 d5 00 00 00 00 00 00 00 00 00 ea 00
       -0.33407813 0.0 -0.52497995 -0.26726252 -0.41043887 0.0 0.0 0.0 0.0 0.0 0.0 0.0 0.0 0.0 -0.20999198 0.0
0000f0 00 00 e1 00 d4 00 e1 00 e5 dd 00 00 00 00 d2 00
       0.0 0.0 -0.29589778 0.0 -0.41998395 0.0 -0.29589778 0.0 -0.25771743 -0.33407813 0.0 0.0 0.0 0.0 -0.43907413 0.0

fire4_squeeze/Conv2D_bias f4 [32]
000000 ef 2f 01 3e d6 1e aa bc f8 dc 48 3e 2a 98 31 be
       0.12615941 -0.020766657 0.19615543 -0.17343202
000010 5c 65 0b 3e a3 b2 46 be 6a 1f 7d 3d e0 87 43 be
       0.13612884 -0.19404082 0.061797537 -0.19094801
000020 4e 15 1e 3e b7 91 9e 3d 4e 61 a1 bd af a1 26 bf
       0.15437815 0.07742637 -0.078798875 -0.6509046
000030 60 78 0d be 7d f8 48 be 3f f6 f4 3d 8b 9d 2e be
       -0.1381545 -0.19626041 0.1196103 -0.17052285
000040 b2 6e b7 bd 43 72 6e be 65 e9 83 bd 0d 14 18 be
       -0.0895666 -0.23285775 -0.06441001 -0.14851399
000050 5f 78 dc 3d 48 93 e0 bd 13 fe ed be 62 16 0e 3e
       0.107651465 -0.10965592 -0.46482906 0.13875726
000060 97 31 25 3c a3 16 a4 3d 0f f5 1b 3b 80 64 cb 3d
       0.010082624 0.0801213 0.002379719 0.09931278
000070 67 af 13 be 13 0b 27 be 14 7d df 3c 67 e1 22 bc
       -0.1442238 -0.16312818 0.027281322 -0.009941435

fire4_squeeze/kernel i1 [32, 1, 1, 128] scale=0.007144176 zero_point=0
000000 00 29 00 00 00 da 00 00 00 00 00 00 00 00 00 00
       0.0 0.2929112 0.0 0.0 0.0 -0.27147868 0.0 0.0 0.0 0.0 0.0 0.0 0.0 0.0 0.0 0.0
000010 00 00 00 00 00 00 00 00 00 00 00 3f 00 00 00 00
       0.0 0.0 0.0 0.0 0.0 0.0 0.0 0.0 0.0 0.0 0.0 0.45008308 0.0 0.0 0.0 0.0
000020 00 00 00 00 00 00 ac 00 00 00 00 00 00 00 00 00
       0.0 0.0 0.0 0.0 0.0 0.0 -0.60011077 0.0 0.0 0.0 0.0 0.0 0.0 0.0 0.0 0.0
000030 00 00 de 00 00 00 00 00 00 00 00 00 00 00 00 3b
       0.0 0.0 -0.24290198 0.0 0.0 0.0 0.0 0.0 0.0 0.0 0.0 0.0 0.0 0.0 0.0 0.42150638
000040 2a c2 2f 00 00 00 00 00 ba 00 00 00 c8 ce 00 bd
       0.30005538 -0.4429389 0.33577627 0.0 0.0 0.0 0.0 0.0 -0.5000923 0.0 0.0 0.0 -0.40007386 -0.3572088 0.0 -0.47865978
000050 cd 00 00 00 00 00 d8 00 00 31 00 30 2d 00 00 b5
       -0.36435297 0.0 0.0 0.0 0.0 0.0 -0.28576705 0.0 0.0 0.35006464 0.0 0.34292045 0.3214879 0.0 0.0 -0.5358132
000060 49 44 00 00 00 00 00 34 d6 2b 00 00 00 47 cf 00
       0.52152485 0.48580396 0.0 0.0 0.0 0.0 0.0 0.37149715 -0.30005538 0.30719957 0.0 0.0 0.0 0.5072365 -0.35006464 0.0
000070 00 00 00 00 46 00 00 da bd 00 00 d4 bd 00 00 bc
       0.0 0.0 0.0 0.0 0.5000923 0.0 0.0 -0.27147868 -0.47865978 0.0 0.0 -0.31434375 -0.47865978 0.0 0.0 -0.48580396
000080 00 30 d1 00 00 00 c3 00 00 00 00 00 00 00 00 00
       0.0 0.34292045 -0.33577627 0.0 0.0 0.0 -0.43579474 0.0 0.0 0.0 0.0 0.0 0.0 0.0 0.0 0.0
000090 2e 00 d3 00 00 00 00 00 00 00 00 00 00 00 00 00
       0.3286321 0.0 -0.3214879 0.0 0.0 0.0 0.0 0.0 0.0 0.0 0.0 0.0 0.0 0.0 0.0 0.0
0000a0 00 00 00 00 d2 00 00 00 00 bf 00 00 3c 00 00 00
       0.0 0.0 0.0 0.0 -0.3286321 0.0 0.0 0.0 0.0 -0.46437144 0.0 0.0 0.42865056 0.0 0.0 0.0
0000b0 00 d2 00 00 00 c8 00 00 00 00 00 2f 00 00 00 00
       0.0 -0.3286321 0.0 0.0 0.0 -0.40007386 0.0 0.0 0.0 0.0 0.0 0.33577627 0.0 0.0 0.0 0.0
0000c0 00 00 00 00 00 22 00 00 d3 00 00 00 00 00 00 00
       0.0 0.0 0.0 0.0 0.0 0.24290198 0.0 0.0 -0.3214879 0.0 0.0 0.0 0.0 0.0 0.0 0.0
0000d0 00 00 00 00 00 00 00 00 00 00 00 00 00 47 00 00
       0.0 0.0 0.0 0.0 0.0 0.0 0.0 0.0 0.0 0.0 0.0 0.0 0.0 0.5072365 0.0 0.0
0000e0 d7 00 00 00 00 00 00 00 00 00 00 00 00 00 00 00
       -0.2929112 0.0 0.0 0.0 0.0 0.0 0.0 0.0 0.0 0.0 0.0 0.0 0.0 0.0 0.0 0.0
0000f0 00 00 00 00 00 00 00 00 ce 00 2b 00 00 00 00 00
       0.0 0.0 0.0 0.0 0.0 0.0 0.0 0.0 -0.3572088 0.0 0.30719957 0.0 0.0 0.0 0.0 0.0

fire6_expand1/Conv2D_bias f4 [192]
000000 11 17 37 bf f5 7b d8 3d dc e3 97 be 75 d6 1b bf
       -0.7151957 0.10570518 -0.2966603 -0.6087411
000010 ae 44 e9 bd 71 8e c3 be 85 3c af 3e a8 93 b3 3d
       -0.11390053 -0.38194612 0.3422586 0.087683976
000020 ca e2 83 bd 0b 4f 25 bf 2f 70 11 3d 23 52 96 3d
       -0.06439741 -0.64573735 0.035507377 0.07339885
000030 4b 92 6f be 93 d7 85 be 51 77 3c be 4f 78 3f 3e
       -0.2339565 -0.26141033 -0.1840489 0.18698238
000040 45 7c 19 bf 65 5e 19 3d b6 28 e0 3d 60 78 28 3d
       -0.59955245 0.037443537 0.10945265 0.041130424
000050 9f 84 e0 bd 90 3a 0d be e2 06 35 be 32 ac 24 bf
       -0.109627955 -0.13791871 -0.17678407 -0.6432525
000060 57 77 48 be 87 e5 8e be 17 bc e4 3d 88 3e b7 bb
       -0.19576775 -0.2790949 0.11168688 -0.005592171
000070 92 ae e7 be 61 e4 8f bf 35 1f 4d bf 13 a9 63 be
       -0.45250374 -1.1241571 -0.80125743 -0.22232465
000080 80 94 f7 3c 82 45 06 bd 55 99 22 be ad 5e 3e 3d
       0.030222178 -0.03278113 -0.15878804 0.04647701
000090 84 0e 59 3e b5 2c 5d 3e f0 a8 59 be 55 c1 8b bc
       0.21196944 0.21599086 -0.21255851 -0.017059961
0000a0 df 89 a8 bd 9c c9 45 bb 5d 5f 24 be be 5a d3 be
       -0.08229422 -0.0030179983 -0.16052003 -0.41280168
0000b0 a4 6d 1b bd 00 bf 55 be 1c cd c3 bd 93 35 65 bf
       -0.03794636 -0.20873642 -0.09560606 -0.8953487
0000c0 71 a4 47 3d c0 e4 84 bd b3 68 9b 3d 21 5c 27 bc
       0.048740808 -0.06488943 0.07588329 -0.010214836
0000d0 62 2f 4f be 22 52 1b bf ab 91 d6 3d 3f b4 e8 3d
       -0.20232919 -0.606722 0.10477003 0.11362504
0000e0 7d d4 2a be a0 30 fb bc e6 bc 33 3b 88 4e 5a bf
       -0.1668262 -0.030662835 0.0027425825 -0.8527608
0000f0 a1 3f 09 3e 0f e3 46 3d 9e 12 c4 3d b8 50 26 bd
       0.13403179 0.048556384 0.095738634 -0.040604323
000100 96 c7 5b bf 2b 82 fa be 62 12 ab 3b 71 ca 03 be
       -0.8585142 -0.48927435 0.0052206973 -0.12870194
000110 18 89 05 be 19 84 7b 3d 74 da d8 bd 6e c4 37 be
       -0.13040578 0.061405275 -0.105885416 -0.17946026
000120 38 fc fe 3c 2c 5c b8 bd e0 1f ce 3d 9c dd 89 3d
       0.031126127 -0.090019554 0.100646734 0.06731722
000130 fa 3c 8d bd 6d 86 94 be 3d 02 62 3d 2c 8a 13 ba
       -0.06896396 -0.2900881 0.055177916 -0.0005628194
000140 2b 75 11 bc 6d cb 04 3d ed f6 b3 3a 9e 72 bc bd
       -0.008878033 0.032420564 0.0013730206 -0.09201549
000150 11 8b d9 be f3 ab 95 be 6c 6b 65 be 06 20 11 be
       -0.42488912 -0.2923275 -0.2240426 -0.14172372
000160 f0 91 07 3e 4b 20 55 bf ea 8a 28 be 6b 49 bf be
       0.13239264 -0.832524 -0.16459242 -0.373607
000170 c5 47 44 bf 00 fc ff 3c db ce 36 be ce ce fd 3d
       -0.7667201 0.031248093 -0.17852347 0.123929605
000180 7a 3f 22 bf 58 4d 9c bc 99 63 aa bd 3e 6b a4 bd
       -0.6337811 -0.01907985 -0.08319778 -0.08028267
000190 11 83 a7 3e 58 ff 81 bb a0 7c e1 be b8 a4 1a bf
       0.32717183 -0.003967207 -0.44040394 -0.6040759
0001a0 4c 64 6c bf 9e 10 94 bf ca a5 10 3e 80 ba a4 bd
       -0.9234054 -1.1567571 0.14125744 -0.080433846
0001b0 f1 f2 17 be 2a ea 30 bd 50 66 1f 3e 80 eb 98 3c
       -0.14838769 -0.043192066 0.15566373 0.018666983
0001c0 db 7c 52 3e fb d9 94 be 7c e5 b9 be f5 7c 5a be
       0.20555441 -0.29072556 -0.36307895 -0.2133673
0001d0 1b d4 c9 be 08 82 cc bc f6 3b 35 bc 17 3d d1 bc
       -0.39419636 -0.024964347 -0.011061659 -0.025541825
0001e0 2f 4e 34 be ad 7e f5 bd 9f 92 76 bd cd 63 9c be
       -0.1760795 -0.11987052 -0.060198423 -0.30544892
0001f0 75 d2 6b 3c 94 73 8b 3c 9b 20 bb bd 42 2a 93 bd
       0.014393439 0.017022885 -0.091370784 -0.071857944
000200 ab 33 e0 be 6c 14 0f 3e 2c ad fe bd 50 59 1b 3e
       -0.4378942 0.13972634 -0.12435374 0.15170789
000210 31 9f 67 bd 34 d1 cb 3d 3a 9f 63 be 5b 78 7d bf
       -0.0565483 0.09952012 -0.22228709 -0.9901177
000220 95 af 0b be c5 a6 ac bd f8 fc 52 3e e0 e1 5a be
       -0.13641198 -0.08430246 0.20604312 -0.21375227
000230 ea ba 13 bf e9 b4 0c bf c4 d1 22 3d 7d f5 cb bd
       -0.57707083 -0.54963547 0.03975083 -0.099589325
000240 62 e9 83 bc a5 2a 83 3d 97 71 c9 be 74 b8 3c 3e
       -0.016102497 0.06404618 -0.39344475 0.18429738
000250 94 56 ea be bb ef e6 3c 56 b6 42 bf ca 45 6f bd
       -0.4576918 0.028190484 -0.7605947 -0.058416165
000260 43 f4 34 bd 4b b6 ab be ed f5 b0 be 4b 12 f8 bd
       -0.04417826 -0.33537516 -0.34562626 -0.12112864
000270 b0 0d 88 bd a8 ef a7 3d 6a bd a3 3e 39 ee 31 3d
       -0.06643236 0.08200008 0.3198045 0.043440077
000280 39 11 a3 3d d1 a5 40 3d 15 6c 36 3e d8 cf 64 be
       0.07962269 0.047033135 0.17814668 -0.22344911
000290 d6 b8 a3 ba 4e a5 95 be 22 f5 86 3d d3 00 c3 bd
       -0.0012490998 -0.2922768 0.06589724 -0.095216416
0002a0 eb 5f ec 3c 48 e2 8b 3e b7 e3 23 be 51 8c 09 3e
       0.028854331 0.27321076 -0.16004835 0.13432433
0002b0 67 b6 0a 3e e1 f7 21 be e8 e5 bb bd 9e ff 93 3d
       0.13546143 -0.15817215 -0.091747105 0.072264895
0002c0 c0 02 34 3e c6 f3 7f bc 6e e5 2e 3d 5b b5 40 bd
       0.17579174 -0.015622085 0.04269927 -0.047047954
0002d0 2b eb ed bd 5d 75 70 bf 91 a2 ce be cd f4 e2 3d
       -0.1161712 -0.9392908 -0.40358403 0.11081848
0002e0 78 e8 8b bf 4b 50 86 3e c8 a6 4b be e1 cf 16 bf
       -1.0930319 0.26233134 -0.19887841 -0.5891095
0002f0 17 f1 1c bf b5 5c 25 3e 89 36 70 be 88 a3 94 bc
       -0.61305374 0.16148646 -0.23458304 -0.018144384

fire6_expand1/kernel i1 [192, 1, 1, 48] scale=0.0077164695 zero_point=0
000000 00 00 00 00 00 00 00 00 00 00 00 dc 00 00 00 00
       0.0 0.0 0.0 0.0 0.0 0.0 0.0 0.0 0.0 0.0 0.0 -0.2777929 0.0 0.0 0.0 0.0
000010 d3 00 00 00 00 00 d1 00 26 00 00 00 00 00 00 00
       -0.34724113 0.0 0.0 0.0 0.0 0.0 -0.36267406 0.0 0.29322582 0.0 0.0 0.0 0.0 0.0 0.0 0.0
000020 d5 00 00 00 00 b6 00 00 00 00 00 00 2a 00 00 00
       -0.33180818 0.0 0.0 0.0 0.0 -0.57101876 0.0 0.0 0.0 0.0 0.0 0.0 0.32409173 0.0 0.0 0.0
000030 00 00 00 d5 00 24 00 00 00 00 00 00 00 00 00 37
       0.0 0.0 0.0 -0.33180818 0.0 0.2777929 0.0 0.0 0.0 0.0 0.0 0.0 0.0 0.0 0.0 0.4244058
000040 c7 ad 00 b5 00 00 ba 00 00 00 00 00 00 00 00 00
       -0.43983877 -0.640467 0.0 -0.57873523 0.0 0.0 -0.54015285 0.0 0.0 0.0 0.0 0.0 0.0 0.0 0.0 0.0
000050 00 00 00 b3 00 00 00 00 2b 00 00 d4 00 00 29 00
       0.0 0.0 0.0 -0.5941681 0.0 0.0 0.0 0.0 0.33180818 0.0 0.0 -0.33952466 0.0 0.0 0.31637526 0.0
000060 00 00 00 00 cc 24 e3 c5 00 00 00 c4 00 3e 00 c0
       0.0 0.0 0.0 0.0 -0.4012564 0.2777929 -0.22377762 -0.4552717 0.0 0.0 0.0 -0.46298817 0.0 0.4784211 0.0 -0.49385405
000070 00 bf 00 00 00 00 00 00 00 00 00 00 ba bb 2e 00
       0.0 -0.5015705 0.0 0.0 0.0 0.0 0.0 0.0 0.0 0.0 0.0 0.0 -0.54015285 -0.5324364 0.35495758 0.0
000080 00 00 00 00 00 00 00 00 dd 00 00 00 00 00 00 00
       0.0 0.0 0.0 0.0 0.0 0.0 0.0 0.0 -0.27007642 0.0 0.0 0.0 0.0 0.0 0.0 0.0
000090 00 00 21 00 00 00 00 00 b7 00 00 00 00 28 dd da
       0.0 0.0 0.2546435 0.0 0.0 0.0 0.0 0.0 -0.5633023 0.0 0.0 0.0 0.0 0.30865878 -0.27007642 -0.29322582
0000a0 00 00 00 00 2a 00 00 00 00 00 00 00 00 00 00 00
       0.0 0.0 0.0 0.0 0.32409173 0.0 0.0 0.0 0.0 0.0 0.0 0.0 0.0 0.0 0.0 0.0
0000b0 00 00 00 2d 00 00 00 00 00 00 00 00 00 00 00 d0
       0.0 0.0 0.0 0.34724113 0.0 0.0 0.0 0.0 0.0 0.0 0.0 0.0 0.0 0.0 0.0 -0.37039053
0000c0 00 00 d8 00 00 00 00 00 00 00 00 d4 00 00 b5 00
       0.0 0.0 -0.30865878 0.0 0.0 0.0 0.0 0.0 0.0 0.0 0.0 -0.33952466 0.0 0.0 -0.57873523 0.0
0000d0 00 d5 d6 00 00 00 00 00 00 00 00 00 00 00 00 00
       0.0 -0.33180818 -0.32409173 0.0 0.0 0.0 0.0 0.0 0.0 0.0 0.0 0.0 0.0 0.0 0.0 0.0
0000e0 00 00 d5 32 00 00 00 00 00 00 a4 00 00 00 00 db
       0.0 0.0 -0.33180818 0.3858235 0.0 0.0 0.0 0.0 0.0 0.0 -0.70991516 0.0 0.0 0.0 0.0 -0.28550938
0000f0 00 00 00 00 00 ce 00 de 00 00 00 00 00 00 e3 00
       0.0 0.0 0.0 0.0 0.0 -0.3858235 0.0 -0.26235998 0.0 0.0 0.0 0.0 0.0 0.0 -0.22377762 0.0

fire6_expand2/Conv2D_bias f4 [192]
000000 8d c5 2f 3e 0b e9 6f bd 15 cd 34 bc 08 1b 47 3e
       0.17165203 -0.058571856 -0.0110352235 0.19443905
000010 31 c6 15 bf 7e 81 3e bd 9c 47 35 bd 6e 40 4b be
       -0.5850554 -0.046510212 -0.044257745 -0.19848797
000020 52 f7 41 3e c3 71 c5 3e 92 8f 80 be 77 11 39 be
       0.18942001 0.38563356 -0.25109535 -0.18073069
000030 3d 11 b2 bc f2 3e 90 bd e6 ca 53 bd 6f e4 c1 be
       -0.021736735 -0.07043256 -0.05170717 -0.37869594
000040 55 43 2d 3e 0b cf 9c 3d 25 36 5b 3c 32 6d 07 3e
       0.16920216 0.07656678 0.013379608 0.13225248
000050 84 59 9d 3e 6d d4 c6 3e 1f a0 fc bd 88 0a 96 3e
       0.30732358 0.38833943 -0.12335228 0.2930491
000060 31 7b 10 3e fd 81 c4 3c f6 a0 be bd bc 9b 76 3d
       0.14109494 0.023987764 -0.093080446 0.060207114
000070 3b 04 8f 3e e8 13 42 3e b0 9e 19 3d 6b e3 3b bd
       0.27932915 0.18952906 0.03750485 -0.04587118
000080 b7 e2 d6 bd fa a2 c4 3e 7b 7f 55 ba b4 f5 00 be
       -0.10492461 0.3840559 -0.0008144301 -0.12593728
000090 62 8f 84 3e 90 87 99 bd 56 f8 42 3d 13 53 64 3e
       0.25890642 -0.074965596 0.047600113 0.22297315
0000a0 dd 5d d2 3e 83 50 5f be 5c c6 1b 3e 3b 5c 03 3e
       0.41087237 -0.21808057 0.15212387 0.12828152
0000b0 d5 bb 14 bd c8 49 e0 3c b3 03 00 bf 0d 54 20 3e
       -0.036311943 0.027378932 -0.50005645 0.15657063
0000c0 c0 f5 c0 be d5 d7 05 bd a6 4e 2a bc ee df 60 3e
       -0.37687492 -0.032676537 -0.010394728 0.21960422
0000d0 82 3a 07 be 40 f8 99 3d 7c ad ff 3b 1b 77 10 bd
       -0.13205913 0.07518053 0.0078026634 -0.035269838
0000e0 87 18 63 3d 24 9b 31 bc 8c e6 e5 3c da ae 84 bd
       0.055443313 -0.010840211 0.028064035 -0.06478663
0000f0 18 26 32 bb d0 8c 8f 3d 28 3e c2 3e 60 b4 25 3d
       -0.002718335 0.0700928 0.37938046 0.040455222
000100 c4 8a d7 3b fb 0d bc 3d d4 5c 05 bf f4 cf fd bd
       0.0065778214 0.09182354 -0.5209477 -0.123931795
000110 a6 be a0 3d 2c 0e ed 3d 14 bb 2e 3e 6f a4 99 be
       0.07848863 0.11574969 0.17063552 -0.30008265
000120 6d 4c 2c be 2f 34 06 bd 31 31 a7 3d a7 80 8b be
       -0.16826029 -0.03276461 0.081636794 -0.2724659
000130 0c 7b 2c bf 13 2b 46 3e d7 cb 5f 3d cb a2 04 3d
       -0.67375255 0.19352369 0.054637756 0.032381814
000140 5a 98 23 be 82 9c b6 bd 0c cc 63 3c 4b a8 d4 bd
       -0.15976086 -0.0891657 0.013903629 -0.10383662
000150 0c 45 23 be 79 7f 2c be 2e 55 73 3e 9b d5 6e bd
       -0.15944308 -0.16845502 0.23762962 -0.05830918
000160 25 c6 20 bd 47 c2 19 3e d4 38 74 bd 92 d4 80 3d
       -0.039251465 0.15015517 -0.059624508 0.062905446
000170 cc cc 94 be 76 76 96 bd 68 96 f9 bd be 53 8c bd
       -0.29062498 -0.073468134 -0.12186891 -0.0685191
000180 de 61 b1 3d 32 ad 82 3e fa 82 d3 bd 12 40 e5 bd
       0.08661245 0.25522763 -0.10327716 -0.11193861
000190 7d 0f a6 3e b2 24 ef 3c 1f 7c 81 be 67 93 39 3e
       0.32433692 0.029192302 -0.2529001 0.18122636
0001a0 2e c0 61 3d a0 40 0b bc e6 1a 63 be ad db 65 3e
       0.055114917 -0.0084992945 -0.2217823 0.22447081
0001b0 38 4f df 3d 5b d3 79 bd 30 f9 90 3e f1 de 87 3d
       0.10903782 -0.06099258 0.28315115 0.066343196
0001c0 bf d3 ba 3c 69 7d 18 be e2 09 5d 3e 55 1f a2 3c
       0.022806047 -0.1489159 0.21585801 0.01979033
0001d0 07 9e 37 bf f7 b7 33 3d 49 e2 d6 3e 26 a8 fd 3d
       -0.71725506 0.043876614 0.41969517 0.123855874
0001e0 e7 e6 41 3e f6 80 6b 3e c1 0f 82 3e 35 c0 d7 be
       0.18935739 0.22998413 0.25402644 -0.4213883
0001f0 c8 6e 77 3e 6e d2 de bd 38 3e d2 bc bd 70 96 3d
       0.24163353 -0.1087998 -0.025664434 0.07345722
000200 37 c1 d4 3c b8 86 19 bd 6c ae 56 3e fa 17 4a 3d
       0.025971038 -0.037481993 0.20964974 0.049339272
000210 f4 80 3e bf b8 0c 86 3e e9 13 cd 3c fa 87 39 3e
       -0.74415517 0.2618158 0.025033908 0.18118277
000220 f7 e9 02 3e 34 97 d0 3d 6b 9d 94 3d d8 2d 9f 3d
       0.12784563 0.1018509 0.072565876 0.07772416
000230 e8 81 9d be be c9 f3 bd 4c a9 29 3d 1f 3e 49 3d
       -0.30763173 -0.11903714 0.04142122 0.04913151
000240 5c 7f 56 be 03 39 a8 3e 25 f7 c5 3e 8a 54 00 bd
       -0.20947021 0.32855996 0.3866512 -0.031330623
000250 b9 fb 2f be 6c e0 8d bd 60 08 07 3e 9d 56 f0 3c
       -0.17185868 -0.06927571 0.13186789 0.029338175
000260 97 49 1b 3e 4b 12 d3 bd ea 43 74 3e d4 3c 6f 3d
       0.15164791 -0.103062235 0.23854032 0.05840762
000270 0f e9 cf 3c 39 9c 1d 3e 90 41 2f be 9b fa 57 3e
       0.025379686 0.15391625 -0.17114854 0.21091692
000280 9d 98 7b be ca 87 8b 3e f5 1d 84 3d b1 0d 0a bd
       -0.24569936 0.27252036 0.06451026 -0.033704463
000290 0c 28 95 3d e2 d6 b4 3e 10 39 99 bc a7 af e0 bc
       0.07283029 0.35320193 -0.018703967 -0.027427508
0002a0 bd 4c 70 bd 65 b3 c7 bd 19 40 37 be 28 76 e1 3d
       -0.058666933 -0.09751014 -0.17895545 0.11008865
0002b0 bb 5c 31 be c3 39 60 3e 28 88 84 bd e2 67 fc 3d
       -0.1732053 0.21897034 -0.06471282 0.123245016
0002c0 68 3c 25 bd b7 71 33 3b 2b 7a 45 bd b9 ff 3c be
       -0.04034081 0.0027381012 -0.04821221 -0.18456925
0002d0 10 ce 02 be 8d cb 0e 3c 38 eb 4f bb d1 e3 83 3d
       -0.12773919 0.0087155225 -0.0031725895 0.06439937
0002e0 83 6a 82 3e 64 c0 84 bd 2d af 28 3d 9d 83 2c bc
       0.25471887 -0.06482008 0.041182686 -0.010529426
0002f0 8c 40 57 3e e3 80 28 3e 36 ef 19 be 76 13 c4 3c
       0.21020716 0.16455416 -0.15032658 0.023935061

fire6_expand2/kernel i1 [192, 3, 3, 48] scale=0.009929487 zero_point=0
000000 00 00 00 00 00 00 00 ce 00 00 e1 00 1b 00 00 00
       0.0 0.0 0.0 0.0 0.0 0.0 0.0 -0.49647433 0.0 0.0 -0.3078141 0.0 0.26809615 0.0 0.0 0.0
000010 00 00 00 00 00 00 00 00 00 ca 00 00 00 00 00 00
       0.0 0.0 0.0 0.0 0.0 0.0 0.0 0.0 0.0 -0.5361923 0.0 0.0 0.0 0.0 0.0 0.0
000020 00 00 d4 18 00 e4 00 00 00 00 b7 00 00 00 00 00
       0.0 0.0 -0.4368974 0.23830768 0.0 -0.27802563 0.0 0.0 0.0 0.0 -0.7248525 0.0 0.0 0.0 0.0 0.0
000030 00 00 00 00 00 00 1a d9 19 00 00 00 18 00 00 00
       0.0 0.0 0.0 0.0 0.0 0.0 0.25816664 -0.38724998 0.24823716 0.0 0.0 0.0 0.23830768 0.0 0.0 0.0
000040 00 00 00 00 00 00 00 00 00 ce 00 00 00 00 00 00
       0.0 0.0 0.0 0.0 0.0 0.0 0.0 0.0 0.0 -0.49647433 0.0 0.0 0.0 0.0 0.0 0.0
000050 00 00 d8 16 00 e6 00 00 00 00 bc 00 00 00 00 00
       0.0 0.0 -0.39717945 0.2184487 0.0 -0.25816664 0.0 0.0 0.0 0.0 -0.6752051 0.0 0.0 0.0 0.0 0.0
000060 00 00 1f 00 00 00 1f 00 00 00 e8 ec 00 00 00 00
       0.0 0.0 0.3078141 0.0 0.0 0.0 0.3078141 0.0 0.0 0.0 -0.23830768 -0.19858973 0.0 0.0 0.0 0.0
000070 00 00 00 00 00 00 00 00 00 db 00 00 00 00 00 00
       0.0 0.0 0.0 0.0 0.0 0.0 0.0 0.0 0.0 -0.367391 0.0 0.0 0.0 0.0 0.0 0.0
000080 00 00 de 00 00 e2 00 00 16 00 cf 00 00 00 00 00
       0.0 0.0 -0.33760256 0.0 0.0 -0.29788458 0.0 0.0 0.2184487 0.0 -0.48654485 0.0 0.0 0.0 0.0 0.0
000090 e0 00 1c 00 00 00 1a 00 00 00 00 00 e2 00 00 00
       -0.31774357 0.0 0.27802563 0.0 0.0 0.0 0.25816664 0.0 0.0 0.0 0.0 0.0 -0.29788458 0.0 0.0 0.0
0000a0 d1 00 00 00 00 00 00 00 00 00 00 e1 00 00 e5 00
       -0.46668586 0.0 0.0 0.0 0.0 0.0 0.0 0.0 0.0 0.0 0.0 -0.3078141 0.0 0.0 -0.26809615 0.0
0000b0 00 00 00 00 00 e0 00 00 00 00 00 00 1b 00 00 00
       0.0 0.0 0.0 0.0 0.0 -0.31774357 0.0 0.0 0.0 0.0 0.0 0.0 0.26809615 0.0 0.0 0.0
0000c0 dc 00 1c 00 00 00 18 00 00 00 00 00 00 00 00 00
       -0.3574615 0.0 0.27802563 0.0 0.0 0.0 0.23830768 0.0 0.0 0.0 0.0 0.0 0.0 0.0 0.0 0.0
0000d0 d9 00 00 00 00 00 00 00 00 00 00 d2 00 00 e8 00
       -0.38724998 0.0 0.0 0.0 0.0 0.0 0.0 0.0 0.0 0.0 0.0 -0.45675638 0.0 0.0 -0.23830768 0.0
0000e0 db 00 00 cb 00 e4 e5 00 00 00 00 00 21 00 00 00
       -0.367391 0.0 0.0 -0.52626276 0.0 -0.27802563 -0.26809615 0.0 0.0 0.0 0.0 0.0 0.32767305 0.0 0.0 0.0
0000f0 d2 00 27 00 00 00 19 00 00 00 00 00 00 00 00 00
       -0.45675638 0.0 0.38724998 0.0 0.0 0.0 0.24823716 0.0 0.0 0.0 0.0 0.0 0.0 0.0 0.0 0.0
